final_model_scripted.pt (torch, 486034 bytes, 20 tensors)

weight f4 [150, 246]
0	0xbc9b2726	-0.018939566
1	0x3ce3b01b	0.027793935
2	0xbd8129a4	-0.063067704
3	0x3c919b6e	0.01777431
4	0x3b9b2d1e	0.004735603
5	0x3d0053ef	0.031330045
6	0xbd2c5a67	-0.042078402
7	0xbc92cfda	-0.017921377
8	0xbd48bdb3	-0.049009036
9	0xbb78618d	-0.0037899942
10	0x3d092f59	0.03349242
11	0xbd04c408	-0.032413512
12	0x3d8a2078	0.06744474
13	0x3c06e6de	0.008233754
14	0x3cd6c0bc	0.02621495
15	0x3cffb2fb	0.031213274
16	0x3d8e0ec7	0.06936412
17	0x3d8341a6	0.06409006
18	0x3d67c87e	0.05658769
19	0xb9b65758	-0.0003477882
20	0x3c78908d	0.015171182
21	0x3d510c56	0.051037155
22	0x3c3e9542	0.0116322655
23	0x3d9d917d	0.07693765
24	0xbd2958f0	-0.041344583
25	0x3d628e5d	0.05531155
26	0xbd27ea6b	-0.040995043
27	0x3d744d90	0.059644282
28	0xbbd0877c	-0.0063638072
29	0x3d2d6c80	0.0423398
30	0x3cd6593c	0.026165597
31	0xbd1fbe7a	-0.039000012
32	0xbc6d5964	-0.014486644
33	0x3d5c9718	0.05385503
34	0xbd167552	-0.03673298
35	0x3d4665fe	0.04843711
36	0x3c55e009	0.013053902
37	0x3d68713a	0.056748606
38	0xbd904882	-0.0704508
39	0x3d91e380	0.0712347
40	0x3d680d17	0.05665311
41	0xbcac6da5	-0.021048376
42	0xbc5c26aa	-0.013436953
43	0xbbeda7ed	-0.0072526843
44	0xbd0fb8b0	-0.03508824
45	0x3b02700d	0.0019903213
46	0x3d097808	0.033561736
47	0x3d71a220	0.058992505
48	0x3d453c88	0.04815343
49	0x3d1264ab	0.035740536
50	0x3d7ecea4	0.062208787
51	0xbcdecc94	-0.02719716
52	0xbd47a5ff	-0.04874229
53	0x3cfbb102	0.030724052
54	0x3d8c629c	0.06854746
55	0x3d94dd51	0.07268775
56	0xbc7d914b	-0.015476535
57	0x3c9a5a01	0.018841745
58	0xbd2a2833	-0.041542243
59	0x3da282a7	0.07935076
60	0x3bead83e	0.0071668914
61	0x3d8085bb	0.06275507
62	0x3d8e7ad8	0.06957024
63	0xbd0d4e2c	-0.03449838
64	0xbbab5510	-0.005228646
65	0x3d2c9583	0.042134773
66	0xbbdbc128	-0.0067063756
67	0x3d84f97b	0.06492897
68	0xbc40a7cf	-0.011758759
69	0xbcbfef90	-0.023429662
70	0x3dcb2a17	0.099201374
71	0x3d1df86f	0.038567003
72	0x3d12670c	0.035742804
73	0x3d39f611	0.045400683
74	0xbd0680a5	-0.03283753
75	0x3d1a369e	0.037649743
76	0x3c9bf62f	0.019038288
77	0x3d0b00c6	0.033936284
78	0xbca20bbb	-0.019780984
79	0x3c9a60ab	0.018844923
80	0x3b7a8780	0.0038227737
81	0xbc8118da	-0.01575892
82	0x3d830422	0.06397273
83	0x3d2fc1da	0.04290948
84	0x3cac94ae	0.02106699
85	0x3d92ba30	0.07164419
86	0xbc4e8875	-0.012605776
87	0x3c928755	0.017886797
88	0x3d052cc5	0.0325134
89	0x3d9f4481	0.07776738
90	0x3db0a9a4	0.086261064
91	0x3b18853e	0.0023272778
92	0xbd1492e2	-0.03627289
93	0xbd22ae1d	-0.03971683
94	0xbd3a6bc2	-0.045512922
95	0xbbf3aab7	-0.0074361223
96	0x3b8cb738	0.0042943023
97	0xbc68f106	-0.014217621
98	0x3d32c1c2	0.043641813
99	0x3ddbd6ca	0.10734327
100	0x3db03398	0.08603591
101	0x3d66a8a7	0.056313183
102	0xbc868ffe	-0.016426083
103	0xbba35964	-0.0049850214
104	0x3b78faa9	0.0037991202
105	0x3d03553a	0.0320637
106	0x3cc4a5a8	0.024004772
107	0xbcdd11f5	-0.026986102
108	0xbd407fdd	-0.04699694
109	0x3d76f774	0.060294583
110	0x3d648151	0.05578739
111	0x3d6ee1b3	0.058320712
112	0x3d379f64	0.04482974
113	0x3cf8a004	0.030349739
114	0x3d318887	0.043343093
115	0xbd5f2cd0	-0.054486096
116	0x3d2aeff8	0.04173276
117	0xbd2f3424	-0.042774335
118	0x3c930fef	0.017951934
119	0xbb3b2a63	-0.00285592
120	0x3c064289	0.008194574
121	0x3b7c2e7e	0.003847986
122	0xbd19d990	-0.037561
123	0xbcf8cbd9	-0.03037064
124	0x3cd7092c	0.02624949
125	0xbc9e74bb	-0.01934277
126	0xbc1b1ee6	-0.009467816
127	0x3d80d3ba	0.06290384
128	0x3ade2012	0.0016946814
129	0x3d1a4ea1	0.037672643
130	0x3b323e24	0.0027197683
131	0xbcd493ce	-0.025949385
132	0xba01c43b	-0.00049502
133	0xbcc21cb0	-0.02369532
134	0xbb4167ab	-0.0029511254
135	0x3d36a541	0.044591192
136	0x3bd64822	0.0065393606
137	0x3d78727b	0.060656052
138	0xbac9c9a5	-0.0015395178
139	0x3da9c7bc	0.082900494
140	0x3cd8db97	0.026471896
141	0x3c2ee4e6	0.010674691
142	0xbd496af6	-0.04917427
143	0xbc41cb79	-0.011828297
144	0x3c995063	0.01871509
145	0xbc8665a0	-0.01640588
146	0xbd16e559	-0.036839817
147	0xbc608562	-0.013703676
148	0x3d41c93b	0.04731105
149	0x3d7526a6	0.05985131
150	0xbc9c4c13	-0.019079244
151	0x3cb1e0cf	0.021713642
152	0x3c29818c	0.010345828
153	0xbd354482	-0.044254787
154	0xbd26aba3	-0.04069103
155	0xbc47b900	-0.0121901035
156	0xbd130f95	-0.035903532
157	0x3d80fb0f	0.062978856
158	0xbd0d531a	-0.03450308
159	0x3cbe712f	0.02324733
160	0x3cffe761	0.03123826
161	0xbd73706c	-0.059433386
162	0x3ce22f28	0.027610376
163	0xbd726658	-0.059179634
164	0x3cc85538	0.024454698
165	0x3d921b34	0.07134095
166	0xbd608bb3	-0.054820728
167	0x3d708a8a	0.05872587
168	0xbd652b36	-0.055949412
169	0x3d6f80b2	0.058472343
170	0x3da832f0	0.082128406
171	0x3c1351f9	0.008991712
172	0x3d330e37	0.04371473
173	0xbc45a925	-0.012064253
174	0x3cf48e53	0.029853022
175	0x3cce8b43	0.02521289
176	0xbd07cca0	-0.03315413
177	0x3a060673	0.00051126553
178	0x3bcd75b8	0.0062701367
179	0x3b403ecc	0.0029334305
180	0xbc8f8434	-0.017519094
181	0x3d4e635c	0.050387725
182	0x3c8de635	0.017321685
183	0xbcff2093	-0.031143462
184	0x3ca2d947	0.019878997
185	0xbc5ddcdc	-0.0135414265
186	0x3c9086e6	0.01764245
187	0xbc367e7f	-0.011138557
188	0xbc0abf3a	-0.0084684435
189	0x3d03d612	0.032186575
190	0xbd2c9be7	-0.042140868
191	0xbc744d5a	-0.01491102
192	0xbd2404b6	-0.040043555
193	0xbb9d02d6	-0.004791598
194	0xbd2b1c93	-0.041775297
195	0x3d47ac27	0.04874816
196	0x3b5c274c	0.0033592759
197	0xbd676707	-0.05649474
198	0x3d7afed8	0.061278194
199	0xbc866771	-0.016406747
200	0xbc28fb29	-0.0103137875
201	0xbd0aeb6b	-0.03391592
202	0x3d0eb979	0.03484485
203	0x3bc6a28e	0.0060618585
204	0x3cc399b1	0.023876997
205	0x3d7bac09	0.061443362
206	0xbcfb8971	-0.030705186
207	0xbd92da4b	-0.07170542
208	0x3d0d18aa	0.03444735
209	0x3d6a528e	0.057207637
210	0x3d1c72a7	0.03819528
211	0xbd506603	-0.050878536
212	0x3d2b38bd	0.041802157
213	0xbc880d26	-0.016607832
214	0xbd182dff	-0.03715324
215	0x3d8355d0	0.06412852
216	0xbd0b6e48	-0.03404072
217	0xbd1ed98b	-0.038781684
218	0xbd5e2c7e	-0.05424165
219	0x3d4d1e71	0.05007786
220	0x3d2a17e9	0.04152671
221	0xbd7b5e23	-0.061369073
222	0x3c9c575c	0.019084625
223	0xbd25d967	-0.040490534
224	0xbb2fc21a	-0.0026818574
225	0x3c8c0651	0.017092856
226	0x3c3c2209	0.011482724
227	0x3c2c06f3	0.010499704
228	0xbd024e4c	-0.03181295
229	0x3c790fef	0.015201553
230	0x3d9f84ef	0.07789027
231	0x3c825c83	0.015913254
232	0x3cc20d3c	0.023687951
233	0x3c9fe7e3	0.019519752
234	0xbbbc6683	-0.005749525
235	0xbd1c917e	-0.03822469
236	0x3d6e10ad	0.058121372
237	0x3d1df82a	0.038566746
238	0xbd42732e	-0.047473125
239	0x3d612fd1	0.054977242
240	0x3d01ec2f	0.031719383
241	0xbc6abd70	-0.014327392
242	0x3d32e368	0.043673903
243	0xbbfcdfe0	-0.0077171177
244	0x3d0a7ef1	0.033812467
245	0xbd22d86c	-0.039757177
246	0x3d4a4048	0.04937771
247	0x3d10a6f8	0.035315484
248	0xbc0f48b7	-0.008745364
249	0x3cf2a2f6	0.029618721
250	0x3d242a11	0.04007918
251	0xbc2d3e23	-0.010573897
252	0xbcd2a467	-0.025713159
253	0x3ce51123	0.027962273
254	0x3d150929	0.03638569
255	0x3ca90dbf	0.020636437

bias f4 [150]
0	0xbc6cb3cc	-0.014447164
1	0x3d215e19	0.03939638
2	0xbca9aeb4	-0.020713188
3	0x3d8250e5	0.06363086
4	0x3c283ff4	0.010269154
5	0x3d37c8a4	0.04486908
6	0x3b44eb38	0.0030047428
7	0xbcf24001	-0.029571535
8	0x3d53554c	0.051595017
9	0xbd81765a	-0.06321402
10	0xbce6bb01	-0.028165342
11	0x3d7c3a82	0.061579235
12	0x3b8fb979	0.0043861237
13	0x3c78c0a5	0.015182649
14	0x3d356c64	0.044292822
15	0x3d0146c8	0.031561643
16	0x3c27f93b	0.010252292
17	0xbd61dc22	-0.055141576
18	0xbccecb0d	-0.025243307
19	0xbc55ab34	-0.013041306
20	0xbbe742a3	-0.0070575043
21	0x3d5a9bbc	0.053371176
22	0x3cd51cce	0.026014712
23	0xbcb41b92	-0.021985803
24	0x3d82b097	0.06381338
25	0x3d4a94a2	0.049458154
26	0x3d5abd39	0.053403113
27	0x3c87ef83	0.0165937
28	0x3d60f41d	0.054920305
29	0xbcf97846	-0.030452859
30	0x3cc0f01d	0.023551995
31	0xbb46ee28	-0.0030354355
32	0xbc8e3776	-0.01736043
33	0x3d0e72f7	0.034777608
34	0xbd785b90	-0.060634196
35	0x3d32e4b0	0.043675125
36	0x3cfefd37	0.031126602
37	0xbcb9a27f	-0.022660492
38	0x3ce8f8d6	0.028438967
39	0x3c715826	0.014730489
40	0x3cf094e9	0.02936788
41	0x3d9c2a9f	0.07625317
42	0x3c7de51b	0.0154965175
43	0x3d1cdee9	0.03829852
44	0xbd397e61	-0.04528654
45	0x3d1a5bd4	0.03768523
46	0x3c19bbc0	0.009383142
47	0x3d56b1de	0.05241572
48	0x3d2ab644	0.04167773
49	0x3d96e3fc	0.07367703
50	0x3d8ce699	0.068799205
51	0xbcc919f2	-0.024548505
52	0xbd1335d4	-0.035940006
53	0x3cd6bbc1	0.026212575
54	0x3c1d6fce	0.009609176
55	0x3d65a210	0.056062758
56	0xbce27140	-0.027641892
57	0xbd707750	-0.058707535
58	0xbd4f2081	-0.050568108
59	0xbae21e37	-0.0017251436
60	0xbd022556	-0.031773888
61	0x3cae63d4	0.021287836
62	0x3c229079	0.00992214
63	0xbcf2adad	-0.02962383
64	0xbd1ee959	-0.038796756
65	0x3cc5c9b5	0.024144033
66	0x3d876adc	0.06612179
67	0x3d75e15f	0.060029384
68	0xbd38e71f	-0.04514229
69	0xbbda79c4	-0.0066673476
70	0x3d1b6ce0	0.03794563
71	0xbca50fc9	-0.020149129
72	0xbcffae18	-0.031210944
73	0x3d3ad11c	0.04560958
74	0x3d436dce	0.04771214
75	0xbbf4f0ec	-0.007475009
76	0xbd31c017	-0.04339608
77	0xbd7d988d	-0.061913062
78	0xbc0a6d6e	-0.008448942
79	0xbd57d3e1	-0.052692298
80	0x3c61908b	0.013767372
81	0x3cbee4d8	0.02330248
82	0x3a83409a	0.001001376
83	0xbb992cb1	-0.004674517
84	0xbb945b7a	-0.0045275064
85	0x3cb10225	0.021607468
86	0xbc72ed5d	-0.0148271
87	0xbbbf63b6	-0.005840744
88	0xbd69ad37	-0.057049956
89	0x3d86d57b	0.06583687
90	0x3ceb6ea1	0.028739275
91	0xbaf1eb53	-0.0018456973
92	0x3c8b6bb9	0.01701914
93	0xbca141f7	-0.019684775
94	0xbd2a997c	-0.04165028
95	0x3d586f3c	0.052840456
96	0xbcc72190	-0.024307996
97	0xbb7bf6a7	-0.0038446577
98	0xbd3d8c32	-0.04627628
99	0x3c9c9ac7	0.019116772
100	0xbcaf4050	-0.021392971
101	0xbd57b46c	-0.052662298
102	0xbd3adfb4	-0.045623496
103	0xbd33ab44	-0.043864504
104	0xbc117d14	-0.008879919
105	0xbd2827bc	-0.04105352
106	0xbb5b3941	-0.0033450874
107	0xbd1118f7	-0.0354242
108	0x3c926955	0.017872492
109	0x3d5ec09d	0.05438291
110	0xbbe14b2c	-0.0068754163
111	0x3d15f101	0.036606792
112	0x3d702086	0.058624767
113	0x3a8b34fe	0.0010620651
114	0xbd1f73c2	-0.038928755
115	0xbd1911cb	-0.037370484
116	0xbc702fae	-0.014659805
117	0x3ce9f500	0.028559208
118	0x3d2ad2db	0.041704994
119	0xbadbb6a0	-0.00167628
120	0xbaabf6f1	-0.0013119859
121	0x3d23ae75	0.039961297
122	0x3d5374b4	0.05162497
123	0xbc28e273	-0.010307896
124	0xbc99f9ff	-0.018795965
125	0xbcd566f1	-0.026050063
126	0xbd3a7e95	-0.045530874
127	0x3c962f1e	0.018333014
128	0xbc4ff997	-0.012693784
129	0xbd2507bb	-0.040290575
130	0x3c08e900	0.008356333
131	0xbd5983a9	-0.053104077
132	0x3d6b4d45	0.057446737
133	0xbd817033	-0.063202284
134	0x3cb05be2	0.021528188
135	0xbbe2952a	-0.0069147544
136	0x3d05965c	0.032614097
137	0x3c53c966	0.012926435
138	0x3d1afbfa	0.03783796
139	0xbd4a74bc	-0.049427733
140	0x3d9008d1	0.070329316
141	0xbc4148d4	-0.011797149
142	0x3d826672	0.06367196
143	0xbc6dcdaa	-0.014514366
144	0x3c58d476	0.013234248
145	0x3cbfb9b6	0.023403984
146	0x3cb6b707	0.022304071
147	0x3c88b591	0.01668814
148	0xbd22772c	-0.039664432
149	0xbd2879cf	-0.04113179

weight f4 [130, 150]
0	0x3d185c7d	0.03719758
1	0xbc4c59ed	-0.012472612
2	0x3dbe8313	0.09302344
3	0xbc8cba5f	-0.017178712
4	0xbba3670c	-0.0049866494
5	0x3d9431d0	0.072360635
6	0xbc26344f	-0.010144307
7	0xbdc436d0	-0.09580767
8	0xbd476e04	-0.048688903
9	0x3dff9783	0.124800704
10	0x3c61f752	0.013791876
11	0x3ba9edf2	0.005185836
12	0x3d36ad0a	0.044598617
13	0x3cedd89d	0.029033953
14	0xbdaab50b	-0.083353125
15	0x3daceaec	0.08443245
16	0x3d374b1e	0.04474937
17	0x3d1054cc	0.03523712
18	0xbbe48270	-0.006973557
19	0xbd4e00b6	-0.050293647
20	0xbc8ce3d9	-0.01719849
21	0x3da0f8c7	0.078599505
22	0xbcb21a2f	-0.021741001
23	0x3d88ed71	0.06685913
24	0x3dbb0180	0.091311455
25	0x3bef7409	0.0073075336
26	0xbd44aafa	-0.04801462
27	0xbc60bbf7	-0.013716689
28	0xbd2f727d	-0.042833794
29	0xbd34b393	-0.044116568
30	0x3c9de1ee	0.01927277
31	0x3d2de3c2	0.042453535
32	0x3b8dc17a	0.0043260427
33	0x3d8b2912	0.06794943
34	0x3c73209a	0.014839316
35	0xbb3114d3	-0.002702047
36	0xbd998a05	-0.07497028
37	0x3c825da6	0.015913796
38	0x3c92101c	0.017829947
39	0xbd7f9794	-0.062400416
40	0x3c9b44c1	0.018953683
41	0x3ccc3c86	0.024931204
42	0x3d7acfc2	0.06123329
43	0xbbafec94	-0.0053687785
44	0x3d0b690a	0.03403572
45	0xbcc62977	-0.024189694
46	0xbbdb7285	-0.0066970014
47	0x3ac40ef3	0.0014958068
48	0xbd343c10	-0.044002593
49	0xbda52b89	-0.08064944
50	0xbc8faea2	-0.017539326
51	0x3cbbb57d	0.022913689
52	0x3d71fac3	0.059077036
53	0x3d439a76	0.047754727
54	0xbdb098cb	-0.08622893
55	0x3d33d385	0.043902893
56	0xbd26938c	-0.040668055
57	0x3d35b2c0	0.044359922
58	0x3dc9560a	0.09830864
59	0xbd5c7670	-0.05382389
60	0x3bdb9cbc	0.006702034
61	0xbd5c614c	-0.053803727
62	0xbd3d9986	-0.04628899
63	0x3dbe913b	0.09305044
64	0x3d000251	0.03125221
65	0x3dc8d76d	0.09806714
66	0x3d7373b4	0.059436515
67	0x3cc0fa2f	0.023556797
68	0x3ccfadf1	0.025351496
69	0x3dae0239	0.08496518
70	0x3c5647e9	0.013078668
71	0xba9431e3	-0.0011306371
72	0x3d379cba	0.0448272
73	0x3d656097	0.05600032
74	0xbd593e20	-0.053037763
75	0x3d1e4e52	0.03864891
76	0x3beb1741	0.007174403
77	0x3d83615b	0.064150535
78	0xbd8fd15a	-0.070223525
79	0x3d7ba069	0.061432276
80	0xbceedf8a	-0.029159326
81	0xbc144318	-0.0090491995
82	0x3ae6a11d	0.0017595623
83	0xbcd4bc43	-0.025968676
84	0xbd19cc85	-0.03754856
85	0x3c9938fd	0.018703932
86	0xbda584bb	-0.08081957
87	0xbcef0202	-0.029175762
88	0x3d97c820	0.07411218
89	0x3d473ba8	0.048640877
90	0x3cac3f32	0.021026228
91	0xbe1b9063	-0.15191798
92	0x3d21f136	0.039536677
93	0xbc9f8ca2	-0.019476239
94	0xbd3f9ee5	-0.046782393
95	0xb86413d4	-5.4377902e-05
96	0xbd4fff2e	-0.050780468
97	0x3c870a3d	0.016484374
98	0xbce28f52	-0.027656231
99	0x3ae65f1b	0.0017575951
100	0xbcc1e4cf	-0.023668675
101	0x3dca6974	0.09883395
102	0xbcfd07c7	-0.030887498
103	0xbd552287	-0.05203488
104	0x3d38cee4	0.04511918
105	0x3d9fc142	0.07800533
106	0x3cefc57f	0.029268978
107	0xbd03138f	-0.032001074
108	0xbd385501	-0.04500294
109	0xbd8c56d9	-0.068525024
110	0x3c07a088	0.00827802
111	0x3d107f1e	0.03527748
112	0x3d42f0ba	0.047592856
113	0x3cdb19f0	0.026745766
114	0xbc8911d7	-0.01673214
115	0xbb21a7ab	-0.0024666588
116	0xbcb780af	-0.022400228
117	0xbda68cc2	-0.08132316
118	0xbd62538a	-0.05525545
119	0x3d9bdbb0	0.076102614
120	0xbbb876a5	-0.005629378
121	0xbdc9cee0	-0.098539114
122	0x3da732c6	0.08163981
123	0xbd654092	-0.055969782
124	0x3d531150	0.051530182
125	0xbc5b2073	-0.013374436
126	0x3e12f73d	0.14352126
127	0x3dc78ba0	0.09743428
128	0x3d9d6d41	0.07686854
129	0xbd285ccd	-0.041104127
130	0xbd385355	-0.045001347
131	0x3cf8e530	0.030382723
132	0x3d66a9e8	0.05631438
133	0xbd4ea042	-0.050445803
134	0x3db07a34	0.086170584
135	0x3dacd1ad	0.0843843
136	0xbd85fc54	-0.065422684
137	0xbc90c8d8	-0.017673895
138	0x3cdd73e0	0.027032793
139	0xbd3969af	-0.045266803
140	0x3d844157	0.06457775
141	0xbd990668	-0.07471925
142	0xbcce7fc2	-0.025207404
143	0x3d64e484	0.055881992
144	0x39ee7778	0.0004548391
145	0x3d84b443	0.06479695
146	0x3e019af5	0.12656768
147	0xbda5656b	-0.080759846
148	0x3ce5e70f	0.028064279
149	0x3dad1865	0.084519185
150	0xbd07bdcf	-0.03314
151	0x3da555af	0.080729835
152	0x3cc9dade	0.024640497
153	0xbd22b2df	-0.039721366
154	0x3d957223	0.072971605
155	0x3ac95ea8	0.0015363293
156	0x3b802148	0.0039102174
157	0x3cf5ee6c	0.030020915
158	0xbcd54cf7	-0.026037676
159	0xbd415b23	-0.047206055
160	0xbc94cdd0	-0.018164545
161	0x3d064077	0.032776322
162	0xbd5b903b	-0.053604346
163	0x3cf59142	0.02997649
164	0x3c97b89a	0.018520642
165	0xbd45a89d	-0.048256505
166	0xbb007eda	-0.001960686
167	0xbd260e1f	-0.04054081
168	0xbcecef64	-0.028922744
169	0x3c43c690	0.011949196
170	0xbd9039fa	-0.07042308
171	0x3d564868	0.052315146
172	0x3c1f7081	0.009731413
173	0xbbd75571	-0.0065714647
174	0x3c9a9d98	0.018873975
175	0x3b8997bf	0.0041989977
176	0xbb710c87	-0.0036781149
177	0xbd7dd794	-0.06197317
178	0x3bb33cbe	0.0054698875
179	0x3b59facf	0.0033261066
180	0x3d340687	0.043951537
181	0xbd72bbab	-0.059261005
182	0xbcc167a9	-0.023609
183	0x3c38c35d	0.011277047
184	0xbd8c12b3	-0.06839504
185	0x3d359898	0.044334978
186	0xbc9ac69f	-0.018893538
187	0x3d8ea1e0	0.06964469
188	0xbda237f7	-0.07920831
189	0xbd054672	-0.032537885
190	0xbd77c2be	-0.060488455
191	0xbd6d9af2	-0.058009095
192	0xbd8ea9ff	-0.06966018
193	0xbc83f2e5	-0.016107032
194	0xbd65c2a4	-0.056093827
195	0xbd15bf99	-0.036559675
196	0x3c2d91bf	0.010593831
197	0xbda17fca	-0.07885702
198	0xbd7730f2	-0.060349412
199	0x3b6e8120	0.0036392882
200	0xbcd8d82d	-0.026470268
201	0x3d8ab75a	0.06773253
202	0xbd2cae79	-0.042158578
203	0xbd126cfe	-0.035748474
204	0x3d9f250e	0.077707395
205	0xbcffcece	-0.031226542
206	0xbd691857	-0.056907978
207	0x3d1942b4	0.03741713
208	0xbd0ef203	-0.03489877
209	0x3d62cd4c	0.055371568
210	0x3d0317b7	0.032005038
211	0x3b3f42da	0.0029184134
212	0xbd71680c	-0.058937117
213	0x3cd03b73	0.025418973
214	0xbbe2b6f2	-0.0069187814
215	0xbc0450f9	-0.008075946
216	0x3d960b4b	0.07326373
217	0x3c76d8cc	0.015066337
218	0xbd94a5f5	-0.07258216
219	0xbc83569e	-0.016032513
220	0xbc6a715c	-0.014309254
221	0xbd48a638	-0.048986644
222	0x3be65f8d	0.0070304335
223	0xbd09e236	-0.033662997
224	0x3d3dea3d	0.046365965
225	0xbd69e9ca	-0.057107724
226	0xbda22667	-0.07917481
227	0x3bb75715	0.005595098
228	0xbcd17be8	-0.025571778
229	0x3d0f9d67	0.03506222
230	0x3d1f0270	0.038820684
231	0x3d040160	0.032227874
232	0x3d531d64	0.0515417
233	0xbd45d3de	-0.048297755
234	0x3cd55546	0.026041638
235	0x3c969495	0.018381396
236	0x3d07f7dd	0.033195365
237	0xbd913b94	-0.07091442
238	0xbd748d3f	-0.059705015
239	0x3da541c3	0.08069184
240	0x3d693033	0.056930732
241	0x3d2e043d	0.04248451
242	0x3cc949d6	0.02457134
243	0xbcdde6b6	-0.02708755
244	0xbd997e55	-0.07494799
245	0x3cc8fe01	0.024535181
246	0x3bee52ff	0.0072730775
247	0x3c92b20c	0.017907165
248	0x3d68ef8b	0.05686907
249	0xbda0a459	-0.07843847
250	0xbd51af4b	-0.051192563
251	0x3d9ac083	0.0755625
252	0x3c9b9866	0.018993568
253	0xbd4824a2	-0.04886306
254	0x3cdb0807	0.026737226
255	0x3d879caa	0.06621678

bias f4 [130]
0	0xbd1f1d41	-0.038846258
1	0xbb1ac93c	-0.002361848
2	0x3d3c4919	0.04596815
3	0xbd7795b7	-0.060445514
4	0x3d600b83	0.05469848
5	0xba9c3620	-0.0011917986
6	0xbd7d713d	-0.06187557
7	0x3d93c8e5	0.07216052
8	0xbcb297c9	-0.021800892
9	0xbd8561d3	-0.06512799
10	0xbcbc0760	-0.022952735
11	0x3d09f407	0.03367999
12	0x3d107d9d	0.035276044
13	0x3c9a1bdd	0.018812114
14	0x3d585c40	0.05282235
15	0x3c5b0efa	0.01337027
16	0x3d6c31ec	0.057664797
17	0x3ce6bf64	0.028167434
18	0x3ad091cc	0.0015912591
19	0x3d6c15c1	0.057637934
20	0xbd104e54	-0.03523095
21	0xbd2f60eb	-0.042817038
22	0xbcc7f5db	-0.024409225
23	0x3da97d28	0.08275825
24	0xbd0befbc	-0.034164175
25	0xbcf8d29e	-0.030373868
26	0xba4fdead	-0.00079296046
27	0xbc9a19e6	-0.018811177
28	0x3b9298cf	0.0044737826
29	0xbc084f91	-0.008319751
30	0x3be83c47	0.0070872637
31	0xbd658860	-0.05603826
32	0xbc617b11	-0.0137622515
33	0xbda527da	-0.08064242
34	0xba7d4397	-0.0009661256
35	0xbd33068c	-0.043707415
36	0x3d51e439	0.05124304
37	0xbd3ca0e1	-0.046051864
38	0x3d0223ca	0.031772412
39	0x3cdbc116	0.026825469
40	0x3d89ce03	0.06728747
41	0xbced2c5f	-0.028951822
42	0xbd8e9b8a	-0.069632605
43	0xbd0cf2c9	-0.034411225
44	0x3c9e2789	0.019305961
45	0x3cbbabae	0.022909012
46	0x3c681195	0.014164348
47	0xbcc37737	-0.023860557
48	0x3d310c47	0.0432246
49	0xbcb275f2	-0.021784756
50	0x3da0a6b1	0.07844294
51	0x3ce6c042	0.028167848
52	0x3d90b06c	0.070649
53	0x3d9a33aa	0.075293854
54	0xbd827e88	-0.0637179
55	0xbd80bd8a	-0.06286152
56	0x3d9dda24	0.07707623
57	0x3c3cf08f	0.011531963
58	0xbbc8d403	-0.0061287894
59	0xbcaed083	-0.02133966
60	0x3d8cadb4	0.06869069
61	0xbbb60498	-0.005554747
62	0x3d867263	0.06564786
63	0x3d0096f9	0.03139398
64	0xbd5ebcca	-0.054379262
65	0x3c9c2570	0.01906082
66	0x3bf428f7	0.0074511725
67	0x3dc0af3d	0.09408424
68	0x3b8376c7	0.004011962
69	0x3c8792d8	0.016549513
70	0xbcd18a8a	-0.025578756
71	0x3d98df41	0.07464457
72	0xbd32b981	-0.04363394
73	0xbd844b51	-0.06459678
74	0x3d4d9bcd	0.05019741
75	0x3d6adcb0	0.05733937
76	0x3d158b96	0.036510073
77	0x3c7b57aa	0.015340725
78	0x3d231fa9	0.039825115
79	0x3da962b0	0.08270776
80	0xbd25cb39	-0.04047701
81	0x3da22a52	0.07918228
82	0x3d22c3ed	0.03973763
83	0x3d4b7785	0.04967453
84	0xbc6f7213	-0.0146146
85	0x3d86dde3	0.0658529
86	0xbd0ac3bd	-0.033878077
87	0x3d85a6bb	0.06525942
88	0x3d54b8eb	0.051934164
89	0xbda0321c	-0.078220576
90	0xbc911f9a	-0.017715264
91	0x3c8acc95	0.016943255
92	0x3b99b9ca	0.0046913372
93	0x3d65239a	0.055942155
94	0x3ba14743	0.004921825
95	0x3daafe98	0.08349341
96	0xbbb23afc	-0.0054391604
97	0x3bbe9266	0.005815792
98	0x3d9492c9	0.072545595
99	0xbac36191	-0.0014906396
100	0x3d02f45f	0.03197133
101	0xbd6b4a9f	-0.05744421
102	0xbcf0e554	-0.029406227
103	0x39a9c8b3	0.00032383724
104	0xbcb310c6	-0.021858584
105	0x3d3ec97a	0.04657886
106	0xbd9c182a	-0.076217964
107	0x3cd9917f	0.026558636
108	0xbc23025f	-0.009949296
109	0x3d2a2bf9	0.04154584
110	0xbd12c6d3	-0.035834145
111	0x3ce850e9	0.028358893
112	0x3d611a66	0.054956816
113	0xbd132b8e	-0.03593021
114	0x3c5a3e16	0.0133204665
115	0xbd94ecce	-0.072717294
116	0x3d972458	0.07379979
117	0xbd90637c	-0.07050225
118	0xbd311a62	-0.04323805
119	0xbd3dd203	-0.04634286
120	0xbcc6b611	-0.024256738
121	0x3b848434	0.00404408
122	0x3d98eb01	0.074666984
123	0x3d8d021e	0.068851694
124	0xbcd6f683	-0.026240593
125	0xbb9dcb9b	-0.0048155314
126	0xbcbd1dca	-0.023085494
127	0x3c5f3bca	0.013625095
128	0x3d398903	0.04529668
129	0xbd8c0710	-0.068372846

weight f4 [90, 130]
0	0xbd416ae7	-0.04722109
1	0x3cc6f48e	0.024286535
2	0x3db67ef5	0.08910934
3	0x3d0dfb84	0.034663692
4	0x3d80cafa	0.06288715
5	0x3d89e9fe	0.067340836
6	0x3c9c2bec	0.019063912
7	0xbd7301f8	-0.05932805
8	0x3d84360c	0.06455621
9	0x3d5796db	0.0526341
10	0x3d9ee3da	0.07758303
11	0x3b190e55	0.002335449
12	0x3cbf29ca	0.023335356
13	0xbb158b2a	-0.0022818544
14	0xbd87a76f	-0.06623732
15	0xbd50f2c4	-0.05101277
16	0x3d5e6df0	0.054304063
17	0x3c26b5a3	0.0101751415
18	0xbd244920	-0.0401088
19	0xbb1e539c	-0.0024158722
20	0xbd1ea25d	-0.03872906
21	0x3d41096d	0.04712813
22	0xbd244e17	-0.040113535
23	0x3d27739f	0.04088175
24	0xbb89c369	-0.004204203
25	0xbb06effb	-0.0020589817
26	0x3d8a3219	0.067478366
27	0xbc9a7ffa	-0.018859852
28	0xbd0ced60	-0.034406066
29	0x3c884785	0.016635666
30	0xbd998b94	-0.074973255
31	0xbcf0a554	-0.02937571
32	0x3dbb5341	0.09146739
33	0x3c255bdd	0.010092703
34	0x3db1cd1c	0.086817
35	0x3cef3215	0.029198686
36	0xbd7aadf6	-0.06120106
37	0x3d0d44be	0.034489386
38	0x3d57b5fa	0.05266378
39	0x3cadbb9b	0.021207621
40	0xbd9f0459	-0.07764501
41	0x3dcd0276	0.10010235
42	0xbcb29126	-0.021797728
43	0xbd64afb2	-0.05583162
44	0xbd8fc309	-0.07019622
45	0xbd5bbdaf	-0.053647693
46	0x3d72eee6	0.059309863
47	0xbc81aaac	-0.015828453
48	0xbd9be6e4	-0.07612398
49	0xbda5b78f	-0.08091652
50	0x3d342043	0.04397608
51	0x3dabe037	0.08392375
52	0xbc4c66ec	-0.01247571
53	0xbdab9393	-0.08377757
54	0xbd86010a	-0.06543167
55	0x3d448553	0.04797871
56	0xbb411754	-0.0029463368
57	0xbd73f6c6	-0.059561513
58	0xbcd6bdaa	-0.026213486
59	0xbda31c3e	-0.07964371
60	0x3d2ed89e	0.04268705
61	0x3c992814	0.018695869
62	0xbd642e2b	-0.05570809
63	0xbd61438c	-0.05499606
64	0x3d14d185	0.036332626
65	0x3d99238a	0.07477482
66	0x3d9af21b	0.07565709
67	0x3d3b1be1	0.045680884
68	0x3d6f5d12	0.05843837
69	0xbd2d1d79	-0.042264435
70	0x3d941386	0.07230286
71	0xbd91f425	-0.07126645
72	0xbce42001	-0.027847292
73	0x3d828de4	0.0637472
74	0xbcdad4ea	-0.026712853
75	0xbd1ae94f	-0.037820157
76	0xbd63135b	-0.05543838
77	0x3da009a4	0.07814339
78	0xbcfda9f7	-0.030964835
79	0x3d0a06c9	0.033697877
80	0xbd153f1d	-0.036437143
81	0xbd842b88	-0.064536154
82	0xbd794a64	-0.06086196
83	0x3da142da	0.07874079
84	0x3d8f2297	0.06989019
85	0xbda9a016	-0.08282487
86	0x3d2ca89c	0.042152986
87	0x3d8b6229	0.06805832
88	0xbd996c1f	-0.074913256
89	0x3d252906	0.040322326
90	0xbd06ec03	-0.032939922
91	0xbcf48e3a	-0.029852975
92	0x3d49c5b2	0.049260803
93	0xbd74d0c6	-0.059769414
94	0x3abcfafc	0.0014418061
95	0x3daddf9f	0.08489918
96	0xbc2269d8	-0.00991293
97	0x3d753357	0.059863415
98	0x3da345b0	0.07972276
99	0x3d453d6e	0.048154287
100	0x3d6ee8c3	0.058327448
101	0x3d32edf5	0.043683965
102	0xbd385d17	-0.045010652
103	0xbcac4eab	-0.021033606
104	0xbd0227a6	-0.031776093
105	0x3d83903d	0.06423996
106	0xbc3fd891	-0.011709348
107	0x3b0a3f58	0.0021094885
108	0x3d6efbc7	0.058345582
109	0x3bb1e7da	0.00542925
110	0xbbc536f0	-0.006018512
111	0xbd5549bb	-0.052072268
112	0xbd6c5dec	-0.05770676
113	0xbd286fa2	-0.041122086
114	0xbd949a57	-0.072560005
115	0xbd66eb14	-0.05637653
116	0x3d27f58f	0.041005667
117	0x3db05a67	0.08610993
118	0x3bc802bc	0.0061038416
119	0xbc939481	-0.018015148
120	0xbd26b561	-0.04070032
121	0xbc8fe93c	-0.01756727
122	0xbd97dc00	-0.074150085
123	0xbd3a5e4e	-0.045500092
124	0x3dce45e3	0.100719236
125	0x3d08244c	0.03323774
126	0x3c1b3d1b	0.009475018
127	0x3cd4339a	0.025903512
128	0x3d789f5c	0.060698852
129	0x3d81e553	0.06342568
130	0x3bf8a3d6	0.00758789
131	0xbd9225bb	-0.07136103
132	0x3dbcf1aa	0.09225781
133	0x3da8c1f7	0.08240121
134	0x3c90325b	0.017602136
135	0xbcd3c3ad	-0.025850141
136	0x3cf263ad	0.029588545
137	0x3d39efd3	0.04539473
138	0xbd02db11	-0.0319472
139	0x3d28e6c2	0.041235693
140	0x3c82577f	0.015910862
141	0x3cc1c579	0.023653733
142	0x3da1634c	0.078802675
143	0x3d04be25	0.0324079
144	0x3be58a02	0.007004977
145	0x3dc67420	0.09690118
146	0xbd317f38	-0.043334216
147	0xbd787606	-0.06065943
148	0x3d8f4a57	0.06996601
149	0x3c86ba38	0.016446218
150	0xbd9cc150	-0.07654059
151	0xbb869e1f	-0.004108205
152	0x3cb7923d	0.022408599
153	0xbd487b1b	-0.048945528
154	0xbd839466	-0.06424789
155	0xbbce8fee	-0.006303779
156	0x3d84ae4a	0.064785555
157	0x3d2a100d	0.041519213
158	0x3da1119f	0.07864689
159	0xbd504156	-0.05084356
160	0x3d8c0d0e	0.068384275
161	0x3d80fa0d	0.062976934
162	0x3d3da8ef	0.046303686
163	0xbd838dc4	-0.06423524
164	0xbc77e7b6	-0.015130928
165	0x3d5bf073	0.053696107
166	0x3cef30c3	0.029198056
167	0x3d721cc2	0.059109457
168	0x3d0b317d	0.033982743
169	0xbc67919e	-0.014133839
170	0xbd2e2c05	-0.04252245
171	0x3d5c2311	0.05374438
172	0xbd96cb53	-0.07363
173	0x3d5ad428	0.053424984
174	0x3d19eb68	0.037578017
175	0x3c5508bc	0.013002571
176	0xbc454bcc	-0.012041997
177	0x3d9012ed	0.0703486
178	0x3c18796c	0.009306293
179	0xbd251b1e	-0.040309064
180	0x3cefcf11	0.029273542
181	0xbc700af5	-0.01465105
182	0x3da2b754	0.07945123
183	0x3b694c51	0.0035598467
184	0x3d3b3397	0.045703497
185	0xbd9c9f21	-0.07647539
186	0xbd842235	-0.06451837
187	0xbd65af40	-0.056075335
188	0x3d768c73	0.060192537
189	0xbd7a21cf	-0.0610674
190	0x3d907f16	0.0705549
191	0x3d9d0140	0.07666254
192	0xbcaaba74	-0.02084086
193	0x3d8c62ad	0.068547584
194	0xbd9a0297	-0.07520025
195	0x3dc46fe3	0.09591653
196	0x3d0abe08	0.033872634
197	0x3dc255f5	0.09489051
198	0x3cdbc257	0.026826067
199	0x3da0d2f5	0.07852737
200	0x3dbb4b01	0.09145165
201	0xbd6ae078	-0.057342976
202	0xbd4bc064	-0.049744025
203	0x3d9a91fb	0.07547375
204	0x3d6073df	0.054798003
205	0xbcaabc78	-0.020841822
206	0xbb00645e	-0.0019591074
207	0xbd17624c	-0.036958978
208	0x3c8f16aa	0.017466862
209	0xba0c3662	-0.000534868
210	0x3adfd89f	0.0017078108
211	0x3dba42b5	0.090947546
212	0xbdaa3a9d	-0.08311961
213	0x3c161d8b	0.009162317
214	0x3da58884	0.08082679
215	0x3d62baee	0.05535405
216	0xbcd0f037	-0.025505168
217	0xbd274320	-0.0408355
218	0x3abbc915	0.0014326895
219	0xbd036a14	-0.032083586
220	0xbdaab94c	-0.08336124
221	0xbd21d2a3	-0.03950752
222	0xbd9c4a2d	-0.076313354
223	0xbc3d4f2f	-0.011554523
224	0x3d0ce492	0.03439767
225	0x3d9d9fc7	0.07696491
226	0x3cf6d154	0.030129112
227	0x3dda604a	0.10662897
228	0xbcaa90c4	-0.020820983
229	0xbbabb0a9	-0.0052395654
230	0x3d82dae3	0.063894056
231	0x3ca3b50e	0.019983795
232	0x3d32b14e	0.043626122
233	0x3dcf6061	0.10125805
234	0xbd051919	-0.032494638
235	0x3dc026ac	0.09382376
236	0xbd3e5098	-0.04646358
237	0xbccf96a6	-0.02534039
238	0x3d603132	0.054734416
239	0xbbab3ff0	-0.005226128
240	0x3c2a6041	0.010398925
241	0x3c9c8872	0.019108031
242	0xbcc4942c	-0.023996435
243	0x3d402efd	0.04691981
244	0x3daeb2e9	0.08530218
245	0x3ce94b38	0.02847825
246	0x3c8c326b	0.017113885
247	0xbd9dd034	-0.07705727
248	0xbcdcb27c	-0.026940577
249	0x3c8e1464	0.017343707
250	0x3cf1d46e	0.02952024
251	0xbbfd1b90	-0.007724233
252	0xbc329078	-0.010898702
253	0xbcab9167	-0.020943357
254	0xbc71997c	-0.014746066
255	0x3d16843e	0.03674721

bias f4 [90]
0	0xbc9aaf88	-0.018882528
1	0x3b596f79	0.0033178015
2	0xbd890645	-0.06690649
3	0x3d0a0715	0.03369816
4	0xbd1262f7	-0.03573891
5	0x3cea91bd	0.028633947
6	0x3dae8da1	0.08523107
7	0xbda9066b	-0.08253177
8	0xbd7aa675	-0.061193902
9	0xbd464858	-0.048408836
10	0xbd451ed4	-0.048125103
11	0xbd9b3220	-0.0757792
12	0xbda4862d	-0.080334045
13	0xbc6b5b5c	-0.0143650435
14	0x3d790318	0.060793966
15	0xbd91fbac	-0.07128081
16	0xbcc9fdbf	-0.024657128
17	0xbd9e58f4	-0.0773181
18	0x3d823ca6	0.06359224
19	0x3d757875	0.05992933
20	0x3da98df8	0.082790315
21	0xbd3c2e20	-0.045942426
22	0xbd6b1197	-0.05738982
23	0x3cbbf677	0.022944672
24	0xbd99faf0	-0.07518566
25	0x3cce3449	0.025171416
26	0x3c491a50	0.01227434
27	0x3dc67ff7	0.09692376
28	0x3c89e32a	0.016831953
29	0x3cbd69e5	0.023121784
30	0x3db270e4	0.087129384
31	0xbc80db79	-0.015729653
32	0xbb2236f5	-0.0024751995
33	0x3d8c0096	0.06836049
34	0xbd54d207	-0.05195811
35	0x3d37f21f	0.04490864
36	0x3cc94982	0.024571184
37	0xbcdf1335	-0.027230838
38	0xbce3f42a	-0.027826387
39	0xbc96e4cf	-0.018419651
40	0x3d18b0b7	0.037277903
41	0xbc9f4f4d	-0.019446993
42	0x3cb67cb9	0.02227627
43	0xbd4efaf4	-0.050532296
44	0x3d74bdf0	0.05975145
45	0xbd8517ef	-0.064987056
46	0xbcfad62f	-0.030619709
47	0xbc6718e9	-0.01410506
48	0xbc6a0b35	-0.0142848985
49	0x3d3e0510	0.046391547
50	0xbdbe503a	-0.09292646
51	0x3d9ca11c	0.07647917
52	0x3da81983	0.08207991
53	0x3da91d31	0.08257521
54	0x3d226b54	0.039653137
55	0x3dacddb3	0.08440723
56	0xbd21bd56	-0.039487205
57	0x3c406cc9	0.011744686
58	0x3d8dce0a	0.069240645
59	0xbda39201	-0.079868324
60	0xbd2dfd1e	-0.04247772
61	0x3d231555	0.039815266
62	0xbc46a551	-0.012124375
63	0xbd8964a3	-0.06708648
64	0x3d3cc21a	0.046083547
65	0x3d142816	0.03617104
66	0x3d910cda	0.07082529
67	0xbd919a2d	-0.07109485
68	0xbd3cafe3	-0.046066176
69	0x3d70d84e	0.058800034
70	0x3c14989c	0.009069588
71	0xbcce71de	-0.02520078
72	0x3d9256b4	0.071454436
73	0x3c31bc82	0.010848166
74	0xbc925e7c	-0.01786732
75	0xbd6356d1	-0.055502716
76	0xbb6cb772	-0.0036120084
77	0x3da0a342	0.07843639
78	0xbd03bc48	-0.03216198
79	0xbd18bd5c	-0.037289962
80	0x3d806382	0.062689796
81	0x3d86829c	0.065678805
82	0xbd81a205	-0.06329731
83	0x3da365c6	0.07978396
84	0xbc43b610	-0.011945263
85	0x3da7af72	0.081877604
86	0xbd8dacc7	-0.0691772
87	0x3d3395dc	0.04384409
88	0xbd452b06	-0.048136733
89	0xbd089da4	-0.033353463

weight f4 [60, 90]
0	0xbd3d0ddb	-0.04615579
1	0xbcaf5dec	-0.02140709
2	0x3d83a97e	0.064288124
3	0xbd8d2d4e	-0.06893407
4	0xbcab81f4	-0.02093599
5	0xbd104cd5	-0.035229523
6	0xbd50f901	-0.05101872
7	0x3d4f09e5	0.050546546
8	0xbc67ad89	-0.014140495
9	0x3d984972	0.074358836
10	0xbcace6ff	-0.021106241
11	0xbdcfa627	-0.10139113
12	0x3c2309d9	0.009951078
13	0x3dff3dac	0.12462935
14	0xbdd45765	-0.10368232
15	0xbdad943a	-0.084755376
16	0xbcf5170e	-0.02991822
17	0x3dcbe3d8	0.09955567
18	0xbdc94bdf	-0.098289244
19	0xbc9e60ec	-0.019333325
20	0x3d638d14	0.055554464
21	0x3d8b7b06	0.06810574
22	0x3d566f23	0.052352082
23	0xbde017c9	-0.10942037
24	0x3d04382a	0.032280125
25	0xbdb8d911	-0.09025777
26	0x3d91bd0c	0.07116136
27	0xbc486a11	-0.012232319
28	0x3d486cd4	0.04893191
29	0x3d5e6902	0.054299362
30	0xbd18b6ee	-0.03728383
31	0x3d00c64f	0.03143912
32	0xbdb2d3a5	-0.08731774
33	0x3d0a31c4	0.033738866
34	0xbda11d7e	-0.07866953
35	0xbd95c8aa	-0.07313664
36	0x3cc8b7df	0.02450174
37	0x3d8d658f	0.069041364
38	0x3db63271	0.0889634
39	0x3cc2e0ba	0.023788799
40	0xbaf23cd3	-0.0018481262
41	0x3bdb029b	0.00668366
42	0x3dd94ab3	0.10609951
43	0xbdb78ddc	-0.089626044
44	0xbdd5a34b	-0.10431536
45	0xbd45b26c	-0.04826586
46	0xbd22cc22	-0.039745457
47	0x3dd2b766	0.10288887
48	0x3d5f9144	0.054581895
49	0x3ce4af23	0.027915543
50	0xbd829a31	-0.06377066
51	0x3dca63b2	0.098822966
52	0xbd076885	-0.033058662
53	0x3c74a74c	0.014932465
54	0x3d03ee51	0.032209698
55	0xbdb11711	-0.08646978
56	0xbd47a32a	-0.04873959
57	0x3d710b6a	0.058848776
58	0xbd812930	-0.06306684
59	0xbcc53b16	-0.024076026
60	0xbd1dc114	-0.03851421
61	0xbd8c9203	-0.06863787
62	0xbcb2e842	-0.021839265
63	0xbcae2889	-0.021259563
64	0x3d70ea3c	0.058817133
65	0x3d37f12f	0.044907745
66	0x3dd1646c	0.10224232
67	0x3d98dfec	0.07464585
68	0x3d2435d5	0.0400904
69	0x3d044e7b	0.032301407
70	0x3c59056c	0.013245922
71	0x3d98f891	0.07469285
72	0xbda79956	-0.081835434
73	0xbdc307d9	-0.09522981
74	0xbd456a9e	-0.04819738
75	0xbd077f32	-0.033080287
76	0x3cf8b79e	0.030360993
77	0xbd0631d3	-0.03276236
78	0xbcf78a5d	-0.030217344
79	0x3d17216d	0.03689711
80	0x3c8d57ca	0.017253775
81	0x3dabf94e	0.083971605
82	0x3d9f37ec	0.07774338
83	0xbc41b9d4	-0.01182409
84	0x3dbbad93	0.09163966
85	0x3c6acd72	0.014331209
86	0x3d065712	0.03279788
87	0x3d297203	0.041368496
88	0xbdc1e3ba	-0.094672635
89	0x3d7cbb30	0.061701953
90	0x3c0ebe63	0.008712384
91	0x3d9c5c71	0.07634819
92	0x3c2db91d	0.0106032165
93	0xbce8dedb	-0.028426578
94	0x3c735180	0.014850974
95	0x3c891699	0.016734408
96	0x3ddd80b3	0.10815563
97	0x3c17b84f	0.009260251
98	0xbd7dd021	-0.061966065
99	0x3ce464af	0.02788004
100	0x3d138446	0.036014818
101	0x3d243be8	0.040096194
102	0xbd38f493	-0.04515512
103	0x3bd2477f	0.0064172144
104	0x3da57e28	0.08080703
105	0xbdd36ee4	-0.10323885
106	0xbdadfb35	-0.084951796
107	0xbd804793	-0.06263652
108	0xbd056a19	-0.032571886
109	0x3ced0463	0.028932756
110	0xbd34dc45	-0.044155378
111	0x3d5eeaef	0.05442327
112	0xbdacdaff	-0.08440208
113	0x3d9b8cd8	0.07595223
114	0x3d078d61	0.033093814
115	0xbd188d54	-0.037244156
116	0xbd1209d5	-0.035653908
117	0x3d26411e	0.040589444
118	0x3d322c92	0.043499537
119	0xbdc3b9ce	-0.09556924
120	0x3dba7ec1	0.09106208
121	0xbdadd38f	-0.08487617
122	0x3d699a88	0.057032138
123	0x3dac1241	0.08401919
124	0x3cf78e6e	0.030219283
125	0x3d3c0362	0.045901664
126	0xbd04b812	-0.032402106
127	0xbd774494	-0.060368136
128	0x3c17433e	0.00923234
129	0xbd812fec	-0.063079685
130	0xbdc4de69	-0.09612734
131	0xbded8692	-0.11597933
132	0x3c073985	0.00825346
133	0x3d89c803	0.06727602
134	0xbd7e56f4	-0.062094644
135	0xbd1b23d6	-0.037875973
136	0x3c6f9f1f	0.01462534
137	0x3def8035	0.116943754
138	0xbb3945fe	-0.0028270478
139	0xbcb95446	-0.022623193
140	0xbd3b1eb0	-0.045683563
141	0x3d0d28cb	0.03446273
142	0x3d852745	0.06501631
143	0x3da5b19e	0.080905184
144	0x3b3f4bb1	0.0029189403
145	0x3d8b874d	0.06812916
146	0xbd82e548	-0.06391388
147	0x3d665c3c	0.056240305
148	0xbbaf312d	-0.0053464384
149	0x3bbf83be	0.0058445623
150	0xbdc58f6a	-0.09646495
151	0x3d4b04d8	0.049565166
152	0x3d6e6544	0.058202043
153	0xbd6ed149	-0.05830506
154	0xbd92a1b3	-0.07159748
155	0x3c8f983d	0.017528648
156	0x3da6efca	0.08151205
157	0x3dc7bf72	0.09753312
158	0xbceccfd1	-0.028907688
159	0xbcc0508f	-0.023475913
160	0xbd02a516	-0.03189572
161	0x3ddfbd90	0.10924828
162	0xbcacdf7b	-0.021102658
163	0xbc2149cb	-0.009844254
164	0x3dd28c59	0.102806754
165	0x3d83f835	0.06443826
166	0x3d90162f	0.07035481
167	0xbc87cec6	-0.01657809
168	0x3d874685	0.066052474
169	0x3d5abdb5	0.053403575
170	0x3d5e2199	0.05423126
171	0xbd307097	-0.043076124
172	0x3bec3cd1	0.0072093983
173	0xbccd180f	-0.025035886
174	0x3dcd2111	0.100160725
175	0xbd99be18	-0.07506961
176	0xbdd4d864	-0.10392836
177	0xbda5a454	-0.08087984
178	0x3b65be01	0.0035055878
179	0x3cadd13e	0.021217939
180	0x3d117538	0.03551218
181	0xbc9562db	-0.018235615
182	0x3d7f6b7c	0.062358364
183	0xbcbeb110	-0.02327779
184	0xbd1afd7a	-0.03783939
185	0xbdbbb0af	-0.09164559
186	0x3d6ae25e	0.057344787
187	0xbd9732f7	-0.07382768
188	0x3c4cda4a	0.012503216
189	0x3d07d486	0.033161663
190	0x3b1a96b8	0.002358837
191	0x3da807b5	0.08204595
192	0x3d30ead0	0.043192685
193	0x3d8565d6	0.06513564
194	0xbd9bded0	-0.076108575
195	0x3a778220	0.00094416924
196	0xbd7e193f	-0.062035795
197	0xbd3d0f09	-0.046156917
198	0x3d32bfbf	0.043639895
199	0xbc50fca0	-0.012755543
200	0xbc462ff3	-0.012096393
201	0xbd510dae	-0.051038437
202	0x3cd1d036	0.025611978
203	0xbd48518d	-0.048905898
204	0x3d47b994	0.048760965
205	0x3df2d688	0.11857325
206	0xbd80d0ff	-0.06289863
207	0x3d8c8ecd	0.068631746
208	0x3d566826	0.052345417
209	0x3dccb3d0	0.09995234
210	0xbcfa088c	-0.030521654
211	0x3dcccebb	0.10000368
212	0x3d7d3974	0.06182237
213	0xbd830ec2	-0.06399299
214	0x3debe617	0.115184955
215	0x3d6300cb	0.055420678
216	0xbdaa2f79	-0.08309836
217	0xbbcebe90	-0.006309338
218	0x3d999e11	0.07500852
219	0x3d9bd49d	0.07608912
220	0x3dfa6371	0.12225998
221	0x3d11a633	0.03555889
222	0x3d9f83d4	0.07788816
223	0xbda3d2ae	-0.07999168
224	0xbd95e5fe	-0.07319258
225	0xbd866275	-0.06561748
226	0xbc225363	-0.009907576
227	0xbde1c2bc	-0.11023471
228	0xbd017f25	-0.031615395
229	0xbd2434c8	-0.0400894
230	0xbd280c56	-0.04102739
231	0x3cbf62ef	0.023362605
232	0x3cd10a9e	0.025517758
233	0x3de26f8e	0.110564336
234	0x3c27a1f4	0.010231484
235	0x3d800a80	0.06252003
236	0xbcadbb91	-0.021207603
237	0x3d92d203	0.07168963
238	0x3d7d7612	0.06188018
239	0x3c4a0e89	0.012332567
240	0x3c051762	0.008123251
241	0xbce848e5	-0.028355071
242	0xbd42ba26	-0.047540806
243	0xbdc28c21	-0.09499384
244	0xbbf7fcd9	-0.0075679836
245	0x3da186a6	0.0788701
246	0xbd9a3183	-0.07528975
247	0x3d6aac0e	0.05729299
248	0x3cb66d0b	0.022268793
249	0x3da5a065	0.080872335
250	0xbc2d8f62	-0.010593267
251	0xbde3dc7c	-0.111260384
252	0xbd737594	-0.059438303
253	0xbcbdc2f9	-0.02316426
254	0x3d2ad0d8	0.041703075
255	0xbd45539d	-0.048175443

bias f4 [60]
0	0x3dd9f67d	0.10642717
1	0xbbf453c8	-0.0074562766
2	0xbd84dbc1	-0.06487227
3	0x3dbb50e6	0.091462895
4	0xbd9d2121	-0.076723345
5	0xbd1c4e11	-0.038160387
6	0x3d7addc0	0.061246634
7	0xbc80c017	-0.015716596
8	0xbdcc10cf	-0.099641435
9	0x3d788966	0.06067791
10	0x3cd159a3	0.025555437
11	0x3dbd24a0	0.09235501
12	0x3c6c022c	0.014404815
13	0x3d7b91bf	0.06141829
14	0x3dc10776	0.09425251
15	0xbdb44619	-0.088024326
16	0x3d7604fb	0.060063343
17	0xbda30c23	-0.07961299
18	0xbd6a2383	-0.057162773
19	0xbcc9d1e6	-0.02463622
20	0xbdd292a3	-0.10281875
21	0x3d0f207e	0.034943096
22	0x3d032b7d	0.032023896
23	0xbcc8f0b0	-0.024528831
24	0x3dcbffe2	0.09960915
25	0x3c79a516	0.015237113
26	0xbcc0a794	-0.023517407
27	0x3c9ab1ae	0.018883552
28	0xbc3bd4c0	-0.011464298
29	0x3d8b5530	0.068033576
30	0x3c93d839	0.018047439
31	0x3c951341	0.018197658
32	0xbd3d4e21	-0.046217088
33	0x3d989d40	0.07451868
34	0xbd5bfebb	-0.053709727
35	0x3dd893e1	0.10575081
36	0xbdad383b	-0.08457991
37	0x3c9a4802	0.018833164
38	0x3d8d75e9	0.06907255
39	0xbcb7bd1d	-0.022429043
40	0x3db362e7	0.087590985
41	0x3d1926e1	0.037390593
42	0x3d93fd7c	0.07226083
43	0x3d07ede9	0.033185873
44	0x3ca2deca	0.019881625
45	0x3d05c37b	0.032657128
46	0x3d89b8e0	0.06724715
47	0xbcdd5ce4	-0.027021833
48	0x3da14b30	0.07875669
49	0x3cecf341	0.028924586
50	0x3dc1bc30	0.09459722
51	0x3cac313e	0.021019574
52	0x3d85b43a	0.06528516
53	0xbd9cb05b	-0.07650825
54	0xbd6d65cd	-0.057958413
55	0xbd15ea20	-0.036600232
56	0x3c796174	0.015220989
57	0x3d731828	0.05934921
58	0x3d714ac3	0.05890919
59	0x3d0aed65	0.033917803

weight f4 [40, 60]
0	0xbd915fa6	-0.070983216
1	0xbd9e3d1b	-0.07726499
2	0xbd78404c	-0.060608193
3	0x3b980c06	0.004640105
4	0xbdc8826f	-0.09790503
5	0xbdc079ef	-0.09398257
6	0x3db94f06	0.09048276
7	0x3d7825bf	0.060582872
8	0xbcf70835	-0.03015528
9	0x3d00f9cc	0.031488225
10	0xbd54139b	-0.05177651
11	0xbdb04b53	-0.08608117
12	0x3debb1b7	0.11508506
13	0xbb1d8f43	-0.002404169
14	0xbddd56a3	-0.1080754
15	0xbdea7f52	-0.11450066
16	0x3d839fd2	0.06426968
17	0xbd9cb00b	-0.07650765
18	0xbd93f407	-0.07224279
19	0xbd95f541	-0.07322169
20	0xbd5b49d4	-0.053537205
21	0xbd9eba62	-0.077503935
22	0xbc83ca02	-0.016087536
23	0xbd164441	-0.036686186
24	0x3d957a36	0.072987005
25	0x3e1b4ae7	0.15165292
26	0x3d1d9cc0	0.038479567
27	0xbdd7f32d	-0.10544429
28	0x3c9992b0	0.018746704
29	0x3df0d25b	0.11758872
30	0xbdc4cbf9	-0.09609217
31	0xbce9d7f0	-0.02854535
32	0x3d89ca85	0.06728081
33	0x3d2f1559	0.042744968
34	0x3d6e3aa8	0.058161408
35	0x3d720c1d	0.059093583
36	0xbe013b8d	-0.12620373
37	0x3da85df8	0.08221048
38	0xbc92f5cd	-0.017939473
39	0xbdd586df	-0.10426115
40	0x3da6b07b	0.0813913
41	0x3dfc556a	0.12320979
42	0x3d1244a9	0.03571001
43	0xbdba9bd8	-0.09111756
44	0x3bcadb6a	0.006190707
45	0xbd231537	-0.039815154
46	0x3dd32c0e	0.10311137
47	0x3d964b99	0.07338638
48	0xbdaa2804	-0.083084136
49	0x3de2da83	0.11076834
50	0x3e17541c	0.14778179
51	0x3d63fe8a	0.05566267
52	0x3c3b3d77	0.011428229
53	0x3d80e612	0.062938824
54	0x3dfca038	0.12335247
55	0x3d4faf59	0.050704334
56	0x3d2c85ff	0.042119976
57	0xbb3f0c61	-0.0029151666
58	0x3e07e59d	0.13271184
59	0xbd2840de	-0.041077487
60	0xbdbcd4d1	-0.09220279
61	0x3c429645	0.011876647
62	0x3dce5bc9	0.100761004
63	0x3caf2e42	0.021384362
64	0x3b8b5c9f	0.0042529847
65	0xbdc6426c	-0.09680638
66	0xbb0a2818	-0.0021081027
67	0x3d85fde1	0.06542564
68	0x3d88dc6a	0.06682666
69	0x3e091159	0.13385524
70	0x3df197b1	0.11796511
71	0xbdb5590b	-0.08854874
72	0xbd28e265	-0.04123153
73	0xbdf4bda6	-0.11950235
74	0x3da889b5	0.082293905
75	0xbdb87238	-0.090061605
76	0x3e0732cb	0.1320297
77	0xbc89e5ca	-0.016833205
78	0xbdfa5074	-0.122223765
79	0xbd1633b8	-0.036670417
80	0x3d603156	0.05473455
81	0x3d56e5c7	0.052465227
82	0x3dfc1da5	0.12310342
83	0x3dc01759	0.09379453
84	0xbda60b71	-0.08107651
85	0x3dab2bd1	0.08357967
86	0xbcf570c2	-0.029960994
87	0xbc6d982b	-0.014501612
88	0xbd913cee	-0.070916995
89	0x3c8fb56e	0.017542567
90	0xbb48d72b	-0.0030645828
91	0x3d85f2b6	0.06540434
92	0x3d8ecf3a	0.06973119
93	0xbc05493a	-0.008135134
94	0x3d400947	0.046883848
95	0x3c4ea3bd	0.01261228
96	0xbd92a408	-0.07160193
97	0xbdfbbc15	-0.12291733
98	0x3d65671c	0.056006536
99	0x3c385e50	0.011252955
100	0xbcc9dcaf	-0.024641363
101	0x3dc35db9	0.095393606
102	0x3dfe48ac	0.12416205
103	0x3d547aeb	0.051875036
104	0x3cfc76c7	0.030818356
105	0xbd8a5596	-0.067546055
106	0x3cf0eee5	0.029410789
107	0x3d323aff	0.043513294
108	0xbe02b7af	-0.12765382
109	0xbc7997d4	-0.015233953
110	0x3e0ac58f	0.13551925
111	0x3c16d4aa	0.0092059765
112	0xbd214cf8	-0.039380044
113	0x3d1daa1e	0.038492315
114	0xbc7c9c13	-0.01541807
115	0x3d6ef3da	0.058338024
116	0x3dae312a	0.08505471
117	0x3e0f82b9	0.1401471
118	0x3e0c6081	0.13708688
119	0x3de5728c	0.11203489
120	0xbd05e5bc	-0.032689795
121	0x3b8094b0	0.003923975
122	0x3d1a5696	0.03768023
123	0x3df4a471	0.11945427
124	0xbd80b6ca	-0.06284864
125	0xbd625eda	-0.05526624
126	0xbd29d760	-0.041465163
127	0xbde6f666	-0.112774655
128	0x3d39b74a	0.045340814
129	0x3cfd7f80	0.030944586
130	0x3d773bf0	0.060359895
131	0xbc278670	-0.0102249235
132	0xbc605ed3	-0.013694483
133	0xbcfe5922	-0.031048361
134	0xbda68718	-0.08131236
135	0xbc8c0cfb	-0.017096033
136	0xbdce17e8	-0.100631535
137	0x3c2ba193	0.010475534
138	0xbd3f938e	-0.04677158
139	0x3c898b9d	0.016790206
140	0xbb889675	-0.0041683265
141	0x3c4b5537	0.0124104535
142	0x3dd870ef	0.105684154
143	0x3dce705c	0.100800246
144	0xbd50af72	-0.050948568
145	0xbdf90daf	-0.12160813
146	0x3c0d065d	0.008607474
147	0x3d66dbc6	0.056361936
148	0xbd4e276f	-0.050330576
149	0x3c6d00da	0.014465535
150	0x3c87baad	0.016568506
151	0xbd6a279b	-0.057166677
152	0x3dfc1d17	0.12310236
153	0x3d989cb1	0.074517615
154	0xbcfcb216	-0.030846637
155	0x3d0e363f	0.0347197
156	0x3e02d405	0.12776192
157	0x3c884e31	0.016638847
158	0xbb766cc7	-0.0037601457
159	0x3daebe52	0.085323945
160	0xbd0f5d99	-0.03500137
161	0xbdf79f9f	-0.12090992
162	0xbdf8deda	-0.121518806
163	0x3b5db4c3	0.0033829666
164	0x3d0fa0c2	0.03506542
165	0x3d6a873e	0.057257883
166	0x3c08facd	0.008360577
167	0xbdb2e202	-0.08734514
168	0xbdb69926	-0.089159295
169	0xbdcc2dc0	-0.099696636
170	0x3d369395	0.04457434
171	0x3c47e090	0.012199536
172	0x3dce91fd	0.10086439
173	0x3da1b93f	0.07896661
174	0xbd068653	-0.032842945
175	0x3de4d917	0.11174219
176	0x3d81877d	0.063246705
177	0x3cebc654	0.028781094
178	0xbcf1c235	-0.02951155
179	0xbd82ecb2	-0.06392802
180	0x3d820738	0.06349033
181	0xbda0a5c8	-0.0784412
182	0x3d27d9b9	0.04097912
183	0xbda867ff	-0.08222961
184	0xbc6e1b5b	-0.014532889
185	0x3dc3d09f	0.09561276
186	0xbc1a4339	-0.009415441
187	0x3db71970	0.08940399
188	0x3dc7cdbf	0.0975604
189	0xbc165d2f	-0.00917749
190	0xbd8c8c66	-0.068627164
191	0xbda83ab3	-0.08214321
192	0x3d829368	0.06375772
193	0xbc1f7d54	-0.00973447
194	0x3bdeb5a5	0.006796556
195	0x3e00c39d	0.1257462
196	0xbd88adfd	-0.06673811
197	0xbdf64e7e	-0.1202669
198	0xbd242ad3	-0.040079903
199	0xbdf3f2bc	-0.11911532
200	0x3d027250	0.0318473
201	0xbca71551	-0.020395907
202	0xbc3bbc77	-0.011458508
203	0x3e0a2910	0.13492227
204	0xbcd55209	-0.026040094
205	0xbd56414d	-0.05230837
206	0x3e0addf5	0.13561232
207	0x3d0ad0be	0.03389048
208	0x3d5244de	0.051335208
209	0xbd5ee122	-0.054413922
210	0xbb8f5919	-0.004374635
211	0xbdc0b198	-0.09408873
212	0x3d890c86	0.06691842
213	0xbc8f9c95	-0.017530719
214	0x3d2ec5d5	0.042669136
215	0x3dea193d	0.11430595
216	0x3bd22152	0.0064126635
217	0x3d536211	0.051607195
218	0x3dbc40ae	0.09192024
219	0x3da2b006	0.0794373
220	0xbd89718f	-0.06711113
221	0xbc2aff5c	-0.010436859
222	0xbaa642d5	-0.0012684712
223	0xbc7e0f7b	-0.0155066205
224	0xbc02a81d	-0.007974652
225	0xbd79ef83	-0.06101943
226	0x3bddd98c	0.0067703184
227	0x3dc500f1	0.0961932
228	0xbd8981c6	-0.067142054
229	0xbcf38a75	-0.029729107
230	0x3dd66f89	0.104704924
231	0x3d95fda1	0.073237665
232	0xbda56c90	-0.08077347
233	0xbdd76767	-0.10517769
234	0xbd901648	-0.070355
235	0xbcd23cfe	-0.025663849
236	0xbd8c8cbc	-0.068627805
237	0x3dc99177	0.09842198
238	0x3e07b5cb	0.13252942
239	0x3cd2dfbb	0.025741449
240	0xbcf96455	-0.03044335
241	0xbcb4e49c	-0.022081666
242	0xbde7c790	-0.113173604
243	0xbd818c90	-0.06325638
244	0x3d8e13dc	0.069373816
245	0x3d23b49e	0.03996717
246	0x3da724db	0.081613265
247	0x3daa46f2	0.08314313
248	0xbd963731	-0.07334746
249	0xbdbd6e2c	-0.09249529
250	0xbc4e781a	-0.012601877
251	0x3e184a1e	0.14872023
252	0x3dc87396	0.09787671
253	0x3dfb4423	0.122688554
254	0xbdc97b90	-0.09838021
255	0x3d7e3487	0.062061813

bias f4 [40]
0	0x3da9a02b	0.08282503
1	0x3dbf16c7	0.09330516
2	0xbdb07d16	-0.08617608
3	0x3df3b43d	0.11899612
4	0xbd302f1b	-0.043013673
5	0x3de7bb7b	0.11315056
6	0xbd3280af	-0.043579753
7	0xbd0c6d37	-0.034283843
8	0x3d8ae004	0.06781009
9	0xbd399129	-0.04530445
10	0xbd8c0f47	-0.068388514
11	0x3d5adaf1	0.053431455
12	0xbb9a6fee	-0.00471305
13	0xbd3d36b3	-0.046194743
14	0xbaea7f46	-0.0017890714
15	0xbdfce65d	-0.12348626
16	0x3e12ee80	0.14348793
17	0x3df45526	0.11930303
18	0xbdcf6673	-0.101269625
19	0xbde8a8c2	-0.11360313
20	0xbd529aaf	-0.05141705
21	0xbd83ec39	-0.0644154
22	0x3e12d29b	0.14338152
23	0x3db7a0f0	0.08966243
24	0x3d59a9f7	0.053140607
25	0x3da733a4	0.081641465
26	0x3d456f31	0.048201744
27	0x3e0675b5	0.13130839
28	0xbdd4868a	-0.10377224
29	0x3daf050c	0.085458845
30	0xbddca090	-0.10772812
31	0xbda161e3	-0.078799985
32	0x3d990931	0.07472456
33	0x3db104b1	0.08643473
34	0x3dc40274	0.095707804
35	0x3cc031ab	0.023461184
36	0xbd85bd6e	-0.065302715
37	0x3da6fcfd	0.081537224
38	0xbca59fee	-0.020217862
39	0xbd78733f	-0.060656782
